others/GeoDa_attack/resnet.ckpt (torch, 819563 bytes, 77 tensors)

conv.weight f4 [16, 3, 3, 3]
0	0xbe15da3e	-0.14634034
1	0x3ec0cb00	0.37654877
2	0x3dfaea2b	0.12251695
3	0x3e333b94	0.17503196
4	0xbd28e649	-0.041235242
5	0x3de9e7c4	0.11421159
6	0xbe462e70	-0.19353652
7	0xbd4b8003	-0.04968263
8	0xbdbf2446	-0.093330905
9	0xbe6abef7	-0.2292441
10	0x3e43b35c	0.19111389
11	0x3ba4e825	0.0050325566
12	0x3d79fab6	0.061030112
13	0xbeaf2b9e	-0.34212965
14	0xbe862d60	-0.26206493
15	0x3d84556c	0.064616054
16	0x3e0951a2	0.13410047
17	0x3d57be72	0.052671857
18	0x3e0746c1	0.13210584
19	0x3e561033	0.20904617
20	0xbe22c977	-0.15897165
21	0xbc9dc74a	-0.019260067
22	0xbe6e548d	-0.23274441
23	0xbb54fe48	-0.0032500196
24	0x3dc845e6	0.09778957
25	0x3b92a6e8	0.004475463
26	0x3e02a346	0.12757596
27	0x3abedb3f	0.001456119
28	0x3e209051	0.15680052
29	0x3e3fecc6	0.18742666
30	0x3d6a23a0	0.05716288
31	0x3ed2152b	0.41031775
32	0xbe490bf9	-0.19633473
33	0xbde5c1d7	-0.11218613
34	0xbe25b8c4	-0.16183764
35	0x3cdb8f7e	0.02680182
36	0xbeb28788	-0.34869027
37	0x3d45943e	0.048237078
38	0xbdc8b885	-0.09800819
39	0x3e138ac7	0.14408408
40	0x3f051667	0.5198731
41	0x3d1f6155	0.038911182
42	0xbdfebb5a	-0.12438078
43	0xbd397068	-0.045273215
44	0x3da81a27	0.08208113
45	0x3c328fd7	0.010898552
46	0x3dd9f707	0.1064282
47	0xbdfa60b9	-0.1222548
48	0x3ca5ccad	0.020239199
49	0x3dcd0e99	0.1001255
50	0xbdc5b909	-0.09654433
51	0xbd0dc89e	-0.03461515
52	0x3d05b23b	0.032640677
53	0x3b56b68a	0.003276261
54	0x3c83c893	0.016086852
55	0x3dd5eec3	0.10445931
56	0x3d95894f	0.0730158
57	0xbe311579	-0.17293347
58	0x3dc16e4a	0.09444864
59	0x3d3adddc	0.045621738
60	0xbe0824ee	-0.13295338
61	0xbe3197b0	-0.1734302
62	0x3e47de96	0.19518504
63	0x3e2f3988	0.1711179
64	0x3c520b79	0.012820118
65	0xbe4c9e1e	-0.19982192
66	0xbb961086	-0.0045796065
67	0x3e7ee770	0.24892974
68	0xbdc85ce6	-0.09783344
69	0x3cc8ba8d	0.024503017
70	0x3caa2f83	0.020774608
71	0xbe2947c6	-0.16531286
72	0x3d6e4b2d	0.058177162
73	0x3e91ee3c	0.2850207
74	0x3e1380e3	0.14404635
75	0xbdf5f0d3	-0.12008824
76	0x3dfd4712	0.12367071
77	0xbddefc7e	-0.10888003
78	0xbe651455	-0.22371037
79	0xbe4dafc4	-0.2008658
80	0x3bc166ac	0.005902132
81	0xbe019fbf	-0.12658595
82	0x3c2e9b7f	0.01065719
83	0xbe8937d4	-0.26800406
84	0xbe3b36ef	-0.18282674
85	0x3e34621a	0.17615548
86	0x3d78e7c8	0.06076792
87	0xbcc91fc3	-0.024551278
88	0xbc94f72a	-0.018184263
89	0xbd71bffc	-0.05902098
90	0x3e7f156b	0.24910514
91	0x3e8446aa	0.25835162
92	0x3de90a48	0.11378914
93	0xbd92e85e	-0.07173227
94	0xbd004ad4	-0.03132136
95	0x3e5771f5	0.21039565
96	0x3dab366c	0.083599895
97	0x3e447632	0.19185713
98	0x3da47f68	0.08032113
99	0xbda207c3	-0.07911637
100	0x3e09247f	0.13392828
101	0x3d8167bc	0.06318614
102	0xbe451ce1	-0.19249298
103	0xbe20c5c6	-0.15700445
104	0xbe8950bb	-0.26819405
105	0xbcd94f2d	-0.026527012
106	0xbd947923	-0.072496675
107	0xbd54beb7	-0.051939692
108	0x3d119975	0.03554674
109	0xbe49a603	-0.19692235
110	0xbd2a4bfb	-0.041576367
111	0xbd580a61	-0.052744273
112	0x3c8e536d	0.017373765
113	0xbe4f0986	-0.20218477
114	0x3d8baa81	0.068196304
115	0x3e93796f	0.28803584
116	0x3d427d86	0.04748299
117	0x3e2b365d	0.16719957
118	0xbe3c2cad	-0.18376417
119	0x3d8ea910	0.0696584
120	0xbbb28916	-0.005448471
121	0xbe30e258	-0.17273843
122	0xbda0c2ee	-0.0784968
123	0x3cb4de4c	0.022078656
124	0x3e914921	0.28376105
125	0x3c9733d8	0.018457338
126	0xbd153736	-0.036429606
127	0x3d1b574d	0.037925053
128	0x3de9e25a	0.11420126
129	0x3cf418c7	0.029796971
130	0xbd9b4149	-0.075808115
131	0xbe62758e	-0.22115156
132	0x3e09c711	0.13454844
133	0xbddf3ef1	-0.10900677
134	0xbd166557	-0.03671774
135	0x3dc3ca36	0.09560053
136	0xbe597061	-0.21234275
137	0x3dccd8cf	0.100022905
138	0x3cd7403b	0.026275745
139	0x3e7b4109	0.24536528
140	0xbc46d17d	-0.012134907
141	0xbe52040c	-0.20509356
142	0x3db494b7	0.088174276
143	0x3d42ba87	0.047541168
144	0x3d261d3f	0.040555235
145	0xbe4fb70d	-0.20284672
146	0xbe267ac4	-0.16257769
147	0xbe1c3fe3	-0.15258746
148	0x3e0b8cda	0.1362795
149	0xbe801a00	-0.25019836
150	0x3d51fc0f	0.051265772
151	0x3e71ba71	0.23606278
152	0xbe2d0d5d	-0.16899629
153	0xbe0ddc81	-0.13853647
154	0xbe82f98a	-0.25581008
155	0xbddd34fe	-0.10801123
156	0x3daf80d8	0.08569497
157	0x3e8961c3	0.268324
158	0xbdb9ed34	-0.09078446
159	0x3d303a22	0.04302419
160	0x3d877b01	0.06615258
161	0x3e62e1ae	0.22156402
162	0x3e4b4412	0.19850186
163	0x3b6faaa9	0.0036570227
164	0xbe14af07	-0.14519893
165	0xbdb3d200	-0.08780289
166	0xbe1f9464	-0.1558395
167	0x3dd1106b	0.102082096
168	0x3cff3e75	0.031157712
169	0xbde2d3aa	-0.11075528
170	0x3e0dc794	0.13845664
171	0x3e98043b	0.29690728
172	0xbe77b6be	-0.24190804
173	0xbd6b047e	-0.05737733
174	0xbd357b94	-0.044307306
175	0x3dcdcac6	0.100484416
176	0xbdedf586	-0.116190955
177	0x3e098411	0.13429286
178	0xbe5b88ed	-0.21438952
179	0x3e0aaf06	0.13543329
180	0x3e8672a3	0.26259336
181	0xbe2c0d8f	-0.16802047
182	0xbe135274	-0.14386922
183	0x3e60e02b	0.21960513
184	0x3e4be9ad	0.19913359
185	0xbe46f7fc	-0.19430536
186	0xbdb99040	-0.09060717
187	0xbe2e6b89	-0.17033209
188	0x3d9ea713	0.07746711
189	0x3e08b5c9	0.13350596
190	0xbc9028ab	-0.017597517
191	0xbd2bd1be	-0.041948073
192	0xbe3f2d5a	-0.18669644
193	0xbd4ddab2	-0.050257392
194	0x3ed9bb25	0.42525592
195	0xbe16c9e9	-0.1472546
196	0x3da5f9ac	0.08104262
197	0x3e62d558	0.22151697
198	0xbd0f975b	-0.035056453
199	0xbe39ca9f	-0.181437
200	0xbd86ce47	-0.06582313
201	0xbc81db7f	-0.015851734
202	0xbe7ece39	-0.24883355
203	0xbd14bc25	-0.03631224
204	0xbdbe8964	-0.09303549
205	0xbe37adeb	-0.17937438
206	0x3d19f9ce	0.037591748
207	0x3d28713f	0.041123625
208	0x3e4b4fc4	0.19854647
209	0xbe3678ed	-0.17819567
210	0xbcd76916	-0.026295226
211	0xbdc1735d	-0.09445832
212	0x3e1f8fa6	0.15582141
213	0x3e5edce0	0.21763945
214	0x3cc04f39	0.023475276
215	0xbe44a2cb	-0.19202726
216	0x3e352429	0.17689575
217	0xbe1d00e3	-0.1533237
218	0xbdc73934	-0.097277075
219	0xbd38562e	-0.045004062
220	0x3e28130c	0.16413516
221	0xbe6e0f03	-0.23247914
222	0x3d34a152	0.04409916
223	0x3d746b52	0.05967266
224	0x3d5a888b	0.053352874
225	0x3aba0655	0.0014192561
226	0xbda545e4	-0.08069971
227	0xbdd6a047	-0.10479789
228	0xbcf56ef5	-0.029960135
229	0x3e62b314	0.22138625
230	0x3e182c7a	0.14860716
231	0xbe720eee	-0.23638508
232	0xbe48586f	-0.19564985
233	0xbe4c66c4	-0.19961077
234	0x3daa3c12	0.08312239
235	0xbd643566	-0.055714987
236	0x3dcb55d4	0.0992848
237	0xbd050578	-0.03247592
238	0x3ebdbc9c	0.3705796
239	0xbc561e4c	-0.013068747
240	0x3e114d65	0.1418968
241	0x3cb0a3e8	0.021562532
242	0x3d6f81cc	0.058473393
243	0xbc3c1984	-0.011480693
244	0x3c826ba5	0.01592047
245	0x3dd77383	0.10520079
246	0x3d1365bc	0.035985693
247	0x3dac88e1	0.08424545
248	0xbe0fe5c2	-0.1405249
249	0x3e56349c	0.20918506
250	0x3e77e9d7	0.24210297
251	0xbd6e90c0	-0.058243513
252	0xbe5fe3db	-0.21864264
253	0x3e2feeb3	0.171809
254	0xbe0f4d0f	-0.1399424
255	0xbe3d146b	-0.1846482

bn.weight f4 [16]
0	0x3f74eb78	0.95671797
1	0x3f806bcc	1.0032897
2	0x3f6bec7d	0.9215773
3	0x3f6b29db	0.9186074
4	0x3f7ace4d	0.9797104
5	0x3f84a110	1.0361652
6	0x3f8c9ddf	1.0985678
7	0x3f819ba6	1.0125625
8	0x3f61ecb5	0.8825181
9	0x3f804bd8	1.0023146
10	0x3f56a8a2	0.83851063
11	0x3f544e50	0.82931995
12	0x3f8148d6	1.0100353
13	0x3f648273	0.8926155
14	0x3f890c87	1.0706948
15	0x3f7d6f3e	0.9899787

bn.bias f4 [16]
0	0x3f3a3d65	0.7274993
1	0xbe35bf5a	-0.17748776
2	0x3e864b96	0.26229542
3	0x3ea50e87	0.32237646
4	0x3e0eec3f	0.13957308
5	0xbc1da537	-0.00962191
6	0x3e0fdddc	0.14049476
7	0xbbe7f9f7	-0.0070793587
8	0xbe167e34	-0.1469658
9	0x3e9491cd	0.29017487
10	0x3e0560d8	0.13025224
11	0x3db6964c	0.089153856
12	0x3ea51341	0.32241252
13	0x3f26eef2	0.6520835
14	0xbda96a23	-0.08272197
15	0x3e74d6aa	0.23910013

bn.running_mean f4 [16]
0	0x3d0bb186	0.034104846
1	0x3e85e0c2	0.2614804
2	0x3c826000	0.015914917
3	0x3c81c780	0.0158422
4	0xbd09a0a7	-0.033600476
5	0xbda245c1	-0.07923461
6	0xbcb32947	-0.021870269
7	0xbdd7950c	-0.10526475
8	0x3d5e5b94	0.054286554
9	0x3bce4cee	0.006295792
10	0xbc47bf3a	-0.012191588
11	0xbd9191f7	-0.07107919
12	0x3c0992ca	0.008396814
13	0x3d1896c1	0.037253145
14	0xbe9e4c09	-0.30917385
15	0x3c6b65ae	0.014367504

bn.running_var f4 [16]
0	0x3bef5720	0.0073040873
1	0x3d350ed7	0.044203606
2	0x3cb271cd	0.02178278
3	0x3c1e9ded	0.009681207
4	0x3c8b8180	0.017029524
5	0x3cbfe8cf	0.023426441
6	0x3c98d476	0.018655997
7	0x3c4264e5	0.011864875
8	0x3c3c9cb6	0.011511972
9	0x3c4fcc75	0.012683024
10	0x3cd1883c	0.025577657
11	0x3c242094	0.010017533
12	0x3d26389b	0.040581327
13	0x3c188779	0.009309643
14	0x3d842d1e	0.06453918
15	0x3c0f32aa	0.008740107

layer1.0.conv1.weight f4 [16, 16, 3, 3]
0	0xbe31ab55	-0.17350514
1	0xbd1a80ac	-0.037720367
2	0x3d5815e7	0.052755263
3	0x3d9e7704	0.07737544
4	0x3db017cb	0.08598288
5	0x3dabf2ae	0.08395897
6	0x3ded89d1	0.11598552
7	0x3ab56f9f	0.001384247
8	0x3da257c4	0.07926896
9	0x3e69be4a	0.22826496
10	0x3dfcf4f6	0.1235141
11	0x3db7a903	0.08967783
12	0x3d29639d	0.041354764
13	0xbdf57aaf	-0.11986291
14	0x3e050db0	0.12993503
15	0xbd29692d	-0.04136007
16	0xbdc944e7	-0.09827595
17	0xbd2d8c72	-0.042370267
18	0x3e579543	0.21053033
19	0xbc5532d3	-0.013012606
20	0x3e29c99d	0.16580816
21	0xbddbcc72	-0.10732354
22	0x3dbf3c89	0.09337718
23	0x3e5489cc	0.2075569
24	0xbddaed40	-0.10689783
25	0xbbb0a9d5	-0.0053913393
26	0x3d8f7410	0.07004559
27	0xbd566b41	-0.05234838
28	0x3cdf6dc8	0.027274027
29	0xbdb6c1a6	-0.08923654
30	0x3e0b53a2	0.13606122
31	0x3e0cf2c3	0.13764481
32	0x3d50c468	0.050968558
33	0xbd026125	-0.031830925
34	0x3df40edc	0.11916897
35	0x3c06557f	0.008199095
36	0x3dfa908d	0.12234602
37	0x3e631664	0.2217651
38	0x3d8a5ac9	0.06755597
39	0x3dcda280	0.1004076
40	0x3b5b15da	0.0033429773
41	0xbc851420	-0.016244948
42	0xbbc5542c	-0.006021997
43	0xbca04200	-0.019562721
44	0xbd19e34f	-0.037570294
45	0x3b20fca5	0.002456465
46	0x3dbc05ad	0.0918077
47	0xbd6cfe45	-0.057859678
48	0x3e280e1a	0.1641163
49	0x3e5c219a	0.21497193
50	0x3d8fb7d1	0.07017482
51	0x3d3f2af5	0.046671826
52	0x3e11e02b	0.1424567
53	0xbcd16c85	-0.025564441
54	0x3db54bef	0.08852374
55	0x3e348124	0.17627388
56	0x3e20aa0c	0.15689868
57	0xbdbc0bf6	-0.09181969
58	0x3d146e09	0.03623775
59	0x3e6807d2	0.22659233
60	0xbc739381	-0.014866711
61	0x3dc210d5	0.09475867
62	0x3e0c808e	0.13720915
63	0x3ded24a3	0.115792535
64	0x3d661be6	0.05617895
65	0xbd85cfdb	-0.06533786
66	0x3d176dac	0.036969826
67	0x3e1fc756	0.15603384
68	0xbd419373	-0.04725976
69	0x3cd816ea	0.026378114
70	0xbd07ed33	-0.033185195
71	0xbe10d94d	-0.14145394
72	0x3e27b795	0.16378625
73	0x3e1f45e7	0.1555401
74	0x3d41517b	0.047196846
75	0x3dd0c842	0.10194446
76	0x3badc52c	0.0053030457
77	0x3d545f38	0.05184862
78	0x3bc01ed8	0.005863052
79	0xbd62ea93	-0.05539949
80	0xbe3146b9	-0.17312135
81	0xbd262e31	-0.040571395
82	0xbe1229cb	-0.14273755
83	0xbd77ca90	-0.060495913
84	0xbc2bbd9c	-0.010482218
85	0xbd242c3c	-0.040081248
86	0x3d78e284	0.060762897
87	0xbdfe4af3	-0.12416639
88	0xbd7c0bbd	-0.061534632
89	0xbbbd927d	-0.005785285
90	0xbd97ba7c	-0.07408616
91	0xbcb0ba8e	-0.021573331
92	0xbdd851d4	-0.105624825
93	0x3b2cd3d2	0.0026371372
94	0x3e25b415	0.16181977
95	0x3d0878e8	0.03331843
96	0xbdb547df	-0.08851599
97	0x3d2ab74f	0.041678723
98	0xbe4b58b0	-0.1985805
99	0x3db2e43a	0.08734937
100	0x3e4205b1	0.18947484
101	0x3da2d80f	0.07951366
102	0xbcd6e9e5	-0.026234576
103	0xbd1518d8	-0.036400646
104	0xbd820267	-0.063481145
105	0x3decb39c	0.11557695
106	0x3e00af4a	0.12566867
107	0xbce92653	-0.028460657
108	0x3db1e3cd	0.08686028
109	0x3e5700d6	0.20996413
110	0x3e27010c	0.16308993
111	0xbd763406	-0.060108207
112	0x3d93be3a	0.07214017
113	0x3d45aa17	0.048257913
114	0xbd3dc33d	-0.04632877
115	0x3d021b09	0.031764064
116	0xbe039569	-0.12849964
117	0xbdea909f	-0.114533655
118	0x3d576424	0.052585736
119	0xbdca7b89	-0.09886844
120	0x3e2c8951	0.16849257
121	0x3e80d83b	0.2516497
122	0x3e2b926c	0.16755074
123	0xbe4c8a30	-0.1997459
124	0xbe47d93f	-0.19516467
125	0xbd180d8e	-0.0371223
126	0x3daa1cd7	0.08306282
127	0x3d358569	0.044316683
128	0x3d2c5aeb	0.042078894
129	0x3e0e1d93	0.13878469
130	0x3e1139f6	0.14182267
131	0xbc5714d0	-0.013127521
132	0x3da0b492	0.07846941
133	0x3dcdeb7b	0.1005468
134	0xbd89768d	-0.06712065
135	0x3d7fa0cf	0.06240922
136	0x3d91a8c8	0.071122706
137	0xbd887c81	-0.06664372
138	0xbe6df1ec	-0.23236817
139	0x3e3846bf	0.17995737
140	0x3cc17969	0.023617463
141	0xbe96a5f1	-0.29423478
142	0x3da49c24	0.08037594
143	0xbcf71394	-0.030160703
144	0x3d730c11	0.05933768
145	0xbe1df86d	-0.15426798
146	0x3c7cdbfb	0.015433307
147	0xbec0bbff	-0.3764343
148	0x3e8c9e8e	0.27464718
149	0xbda3e2b1	-0.08002222
150	0x3e03530b	0.12824647
151	0xbe5e7754	-0.21725208
152	0x3e28a77a	0.16470137
153	0xbdf8da16	-0.121509716
154	0xbe17ff0b	-0.14843385
155	0x3ce0f5d6	0.027460974
156	0xbd9f03a3	-0.077643655
157	0x3c8d9837	0.017284496
158	0x39e5a52c	0.00043801346
159	0xbb838ad7	-0.0040143537
160	0xbd927ce3	-0.071527265
161	0xbbb7ab85	-0.0056051635
162	0x3db8fc48	0.09032494
163	0x3e687503	0.22700886
164	0xbdc22f8c	-0.09481725
165	0x3dcc05cd	0.09962044
166	0xbdb8df49	-0.09026963
167	0x3de9b194	0.114108235
168	0xbc4c96af	-0.012487098
169	0xbdada8f8	-0.08479494
170	0x3ddf9849	0.10917718
171	0xbd86447b	-0.0655603
172	0x3d875b84	0.06609252
173	0xbe12ac8e	-0.14323637
174	0xbd8738a8	-0.06602603
175	0xbdb7a30a	-0.08966644
176	0xbdac4fd6	-0.08413665
177	0x3e5af644	0.21383005
178	0xbca4078e	-0.020023134
179	0x3d3f3615	0.046682436
180	0xbdd7e421	-0.10541559
181	0xbe19a609	-0.15004744
182	0x3c988a57	0.018620653
183	0x3dd75dd2	0.10515942
184	0xbdb44022	-0.08801295
185	0x3e1c1202	0.15241244
186	0x3bd0d97a	0.0063735815
187	0x3e132af4	0.14371854
188	0xbdacfb2c	-0.08446345
189	0xbe8c6b34	-0.2742554
190	0xbdf6a0c8	-0.12042385
191	0xbdd7cd54	-0.1053721
192	0x3e324488	0.17408955
193	0xbe1b1aba	-0.15146914
194	0x3d06b8fe	0.032891266
195	0xbe346159	-0.1761526
196	0x3c4e03a5	0.012574111
197	0x3c025cda	0.007956708
198	0x3bc065b1	0.0058714976
199	0x3e04323e	0.12909791
200	0xbd55f321	-0.05223382
201	0x3e281e2d	0.16417761
202	0xbddcbeb8	-0.10778564
203	0x3e59d35f	0.21272038
204	0xbd260bec	-0.040538713
205	0x3d9a7ed2	0.0754372
206	0x3d1b310a	0.037888564
207	0x3dfb73c2	0.122779384
208	0x3e08e4a2	0.13368466
209	0xbdab3711	-0.083601125
210	0xbe45e23e	-0.19324586
211	0xbd48c03c	-0.049011454
212	0xbd14dbaf	-0.03634232
213	0x3e17eb24	0.14835793
214	0x3d1194c1	0.035542253
215	0xbe0ef446	-0.1396037
216	0xbe029d19	-0.1275524
217	0x3e4b633a	0.1986207
218	0x3e0af670	0.13570571
219	0x3d9e72d3	0.07736745
220	0xbe2e7443	-0.17036538
221	0x3b6157fc	0.0034384718
222	0xbd327b0c	-0.043574378
223	0x3d6c3662	0.05766905
224	0xbd23cd48	-0.039990693
225	0x3c6831ff	0.014172076
226	0x3c4c5a49	0.0124726975
227	0xbd40112e	-0.046891384
228	0x3d2fa0ee	0.042878084
229	0x3d7d34e4	0.06181802
230	0xbd58d6de	-0.05293929
231	0x3d8c3fcc	0.06848106
232	0xbe0457e3	-0.12924151
233	0x3cbba021	0.022903504
234	0xbd25e3d2	-0.04050047
235	0x3dc268de	0.09492658
236	0x3d2fa08b	0.042877715
237	0xbd4c01fa	-0.049806572
238	0xbc91c18f	-0.017792491
239	0x3db41bd7	0.087943725
240	0xbdb4986f	-0.08818137
241	0xbd66de70	-0.056364477
242	0xbca9391e	-0.020657118
243	0x3d007c34	0.03136845
244	0xbbf669df	-0.007519945
245	0x3e2f5809	0.17123426
246	0xbced4f79	-0.02896856
247	0xbe244267	-0.16040955
248	0xbd438ab4	-0.0477397
249	0xbc41fded	-0.011840326
250	0x3d4211ba	0.047380187
251	0x3bcfa0de	0.0063363155
252	0x3db6a127	0.08917456
253	0x3d102f38	0.03520128
254	0xbdf1123e	-0.117710575
255	0x3d20f812	0.03929908

layer1.0.bn1.weight f4 [16]
0	0x3f6b761a	0.91977084
1	0x3f8824ba	1.0636208
2	0x3f867f51	1.0507604
3	0x3f738ecf	0.95139784
4	0x3f8b2876	1.0871723
5	0x3f85b0d7	1.0444592
6	0x3f6004c1	0.87507254
7	0x3f841924	1.0320172
8	0x3f96d9b8	1.1785192
9	0x3f816372	1.0108473
10	0x3f5f48f2	0.8722068
11	0x3f8b463c	1.0880809
12	0x3f66aecf	0.90110487
13	0x3f6145ee	0.8799733
14	0x3f79d0a9	0.97584015
15	0x3f5f023c	0.87112784

layer1.0.bn1.bias f4 [16]
0	0xbe9bfeb4	-0.3046776
1	0x3f24f0bd	0.6442984
2	0x3d6e956a	0.05824796
3	0xbe29afd7	-0.16570984
4	0x3e85a878	0.26105094
5	0x3e5415e4	0.20711476
6	0xbdf0ec67	-0.1176384
7	0xbc883ec8	-0.016631499
8	0x3f02323c	0.508579
9	0x3e7943dd	0.24342294
10	0xbc82df61	-0.015975656
11	0x3e27d17c	0.16388506
12	0xbcd8a9f2	-0.026448224
13	0x3db18e86	0.08669762
14	0x3db57d60	0.08861804
15	0x3dc6d48b	0.09708508

layer1.0.bn1.running_mean f4 [16]
0	0x3fd5a1c2	1.668999
1	0xbf1f8a78	-0.6232066
2	0xc0035f47	-2.0526903
3	0x3f674068	0.9033265
4	0xbfbf1936	-1.4929569
5	0xbf4c7482	-0.79865277
6	0xbf28c724	-0.65928864
7	0xbefc2619	-0.49247816
8	0xbf1c7585	-0.6111682
9	0xbf814bfb	-1.0101312
10	0x3c85cdc2	0.016333465
11	0xbfb1e05d	-1.3896595
12	0xbf31f52f	-0.69514745
13	0x3de6e3aa	0.11273892
14	0xbf5067bc	-0.81408286
15	0xbf97a517	-1.1847256

layer1.0.bn1.running_var f4 [16]
0	0x3fa08b3d	1.2542492
1	0x3f0a95ca	0.5413481
2	0x3fd66410	1.6749287
3	0x3fabb511	1.3414632
4	0x3fa5ea26	1.2962081
5	0x3fe01aed	1.7508217
6	0x3f4af89a	0.79285586
7	0x3f956012	1.1669943
8	0x3f9757b5	1.1823641
9	0x3fabc7d9	1.3420364
10	0x3f9ce088	1.2256021
11	0x3fed2c7f	1.8529204
12	0x3fa19c08	1.2625742
13	0x3faeb9d4	1.365046
14	0x3fa1bbf8	1.2635489
15	0x3f3ea1f2	0.7446586

layer1.0.conv2.weight f4 [16, 16, 3, 3]
0	0xbdc56c44	-0.09639791
1	0xbc0ed2ae	-0.008717222
2	0x3bda51d5	0.006662587
3	0xbdc0416b	-0.093874775
4	0xbe433541	-0.19063284
5	0x3d6de337	0.058078017
6	0xbdb4c2ea	-0.088262394
7	0xbe5c702a	-0.21527162
8	0xbd8bedfe	-0.06832503
9	0xbcde35af	-0.027125208
10	0xbe8aa96c	-0.27082384
11	0x3e541eb5	0.20714839
12	0xbd9b290c	-0.075761884
13	0x3d3b677b	0.045752984
14	0xbc511888	-0.012762196
15	0xbcec8603	-0.028872496
16	0xbd2e8ca1	-0.042614583
17	0x3e23692b	0.15958087
18	0x3e1f2f1b	0.15545313
19	0xbe27c34a	-0.1638309
20	0xbd7d93ba	-0.06190846
21	0xbd914857	-0.07093876
22	0x3debb2ff	0.1150875
23	0xbc967e1b	-0.018370679
24	0x3d4b35b3	0.04961176
25	0xbe1020a8	-0.14074957
26	0xbe08e57a	-0.13368788
27	0xbc346621	-0.011010678
28	0x3c92851d	0.017885739
29	0x3d907af3	0.07054701
30	0xbe0640d6	-0.1311067
31	0xbde2802c	-0.11059603
32	0xbd849069	-0.064728566
33	0x3cf86e1a	0.030325938
34	0xbe668e4e	-0.22515222
35	0xbe06a200	-0.13147736
36	0xbc638800	-0.013887405
37	0x3ced9cd8	0.029005453
38	0x3e09a98f	0.13443588
39	0xbdf3aef2	-0.118986025
40	0x3d225fc0	0.039642096
41	0x3d8f78d3	0.07005467
42	0xbe69d5ad	-0.22835417
43	0x3e58fff4	0.21191388
44	0x3d8c2157	0.068422966
45	0xbe1a4564	-0.15065533
46	0xbe0d4781	-0.13796808
47	0xbddd8453	-0.108162545
48	0xbcd854d0	-0.02640763
49	0x3c05a115	0.008156081
50	0xbd00511b	-0.03132735
51	0xbc42e81b	-0.011896159
52	0x3d8a3868	0.0674904
53	0xbc690fcc	-0.014224958
54	0xbd0fa44f	-0.035068806
55	0x3ddc17a6	0.10746698
56	0xbd91350d	-0.07090197
57	0xbd9ec715	-0.07752816
58	0x3d018a43	0.031625997
59	0x3c97d843	0.018535739
60	0x3d42561e	0.04744541
61	0xbd03510c	-0.032059714
62	0xbd9d6032	-0.076843634
63	0x3d8122cf	0.06305467
64	0x3d9249c0	0.07142973
65	0xbe34b553	-0.17647295
66	0x3e1787c6	0.14797887
67	0xbdd33df0	-0.10314548
68	0x3d235ce3	0.039883506
69	0x3d251169	0.040299807
70	0xbcb73018	-0.0223618
71	0xbdbff59d	-0.09373019
72	0x3dfe8ad4	0.12428823
73	0xbe4f703c	-0.20257658
74	0xbdc59ee4	-0.096494466
75	0x3c94cfe4	0.018165536
76	0xbd9c46b2	-0.076306716
77	0x3da260d9	0.079286285
78	0x3deaadcc	0.114589304
79	0xbd929b95	-0.07158581
80	0xbe31c598	-0.17360532
81	0x3da1c730	0.0789932
82	0x3a0c1580	0.000534378
83	0x3e05a29b	0.1305031
84	0x3c8a771e	0.016902503
85	0x3d698f6b	0.05702154
86	0x3d9ad588	0.07560259
87	0x3d1823f1	0.03714365
88	0x3df62a55	0.12019793
89	0xbc192311	-0.009346739
90	0x3dbb406a	0.091431454
91	0xbd82cb6e	-0.063864574
92	0xbd0b7105	-0.03404333
93	0xbe01ce6f	-0.12676404
94	0xbe1be927	-0.1522566
95	0x3caf8772	0.02142689
96	0xbd973800	-0.07383728
97	0xbe56fc8e	-0.2099478
98	0xbcc3f2a3	-0.02391941
99	0x3e1d2e89	0.15349783
100	0x3db8fff9	0.09033198
101	0xbdf4cc47	-0.11953025
102	0xbd44556a	-0.04793302
103	0x3cbf248a	0.023332853
104	0xbd7fd353	-0.062457394
105	0x3d3212ac	0.04347484
106	0xbcc10a1d	-0.023564393
107	0xbe13cb80	-0.14433098
108	0x3dfbddd1	0.122981675
109	0xbd4a3c22	-0.049373753
110	0x3d0b77f0	0.03404993
111	0xbc9eb2ca	-0.019372363
112	0xbd270015	-0.040771563
113	0x3d90136c	0.070349544
114	0xbe29727f	-0.16547583
115	0x3b81d115	0.003961692
116	0x3b872de4	0.0041253436
117	0xbe2b9c6f	-0.16758893
118	0xbe32c25a	-0.17456952
119	0x3c851771	0.01624653
120	0xbd8d40cc	-0.06897125
121	0xbe297628	-0.1654898
122	0xbc0144d5	-0.007889946
123	0xbe16f0b9	-0.14740266
124	0x3de75401	0.11295319
125	0x3daee93b	0.08540579
126	0x3e1f1a85	0.1553746
127	0x3c9d1507	0.019175066
128	0xbdba8337	-0.091070585
129	0xbd320979	-0.043466065
130	0xbe1efe42	-0.15526679
131	0xbded27f9	-0.1157989
132	0x3e703555	0.23457845
133	0xbdf2afaf	-0.11849915
134	0xbe05c1c8	-0.13062203
135	0x3ceb66d6	0.02873556
136	0x3e110186	0.14160737
137	0x3d67ed6a	0.0566229
138	0xbd7c2bc9	-0.061565194
139	0x3c820b64	0.015874572
140	0x3e8c86e5	0.27446666
141	0xbb29a8f9	-0.002588807
142	0xbe07e754	-0.13271838
143	0xbdcc00ab	-0.09961065
144	0xbc62145b	-0.013798798
145	0x3da4378c	0.08018407
146	0x3d1a0970	0.037606657
147	0x3c3c0258	0.011475168
148	0xbdacdb3b	-0.084402524
149	0xbd50f703	-0.05101682
150	0x3c9b8a49	0.018986838
151	0xbd991095	-0.07473866
152	0xbcb7bd58	-0.022429153
153	0x3d6e5b06	0.058192275
154	0xbe57b16d	-0.21063776
155	0x3ddb2a4f	0.10701429
156	0x3d98d2a4	0.074620515
157	0xbd9334bf	-0.07187795
158	0x3dbbe981	0.09175397
159	0xbd6df796	-0.058097444
160	0x3e69ddd9	0.22838534
161	0xbe166ce0	-0.1468997
162	0xbdfc7789	-0.12327487
163	0x3d022e19	0.031782243
164	0x3dfe1289	0.12405879
165	0xbdb366e3	-0.087598585
166	0xbdedb89a	-0.116074756
167	0x3dbab287	0.09116083
168	0xbe102771	-0.14077546
169	0xbd108ba0	-0.035289407
170	0x3e2e908a	0.17047325
171	0xbda6fcc1	-0.08153678
172	0xbde201a2	-0.11035468
173	0x3ce69fee	0.028152432
174	0xbdb41885	-0.08793739
175	0xbcaa89bd	-0.020817632
176	0xbe021dcf	-0.12706684
177	0xbda6ed17	-0.0815069
178	0xbe06ec31	-0.13176037
179	0xbe1066b6	-0.14101681
180	0x3deb39de	0.11485647
181	0x3ca02b85	0.019552002
182	0x3ce6fc14	0.028196372
183	0xbd69c618	-0.057073683
184	0x3e457022	0.19281057
185	0x3d1b212b	0.03787343
186	0x3ccf0c4a	0.025274415
187	0xbdd15be4	-0.10222605
188	0xbe04c14d	-0.12964363
189	0xbe06de49	-0.13170733
190	0xbce76e9c	-0.028250985
191	0x3d721733	0.059104156
192	0xbe7e7be2	-0.24851945
193	0xbd2be83a	-0.041969515
194	0xbc03c427	-0.008042372
195	0x3d3b7234	0.04576321
196	0x3e2569e3	0.16153674
197	0xbe1fcbee	-0.15605137
198	0xbd32429f	-0.043520566
199	0xbd930fe3	-0.071807645
200	0x3d28059b	0.04102097
201	0x3b4cc9b8	0.0031248163
202	0xbce1bcc9	-0.02755584
203	0x3d86d2a0	0.06583142
204	0x3e080887	0.13284503
205	0x3d666531	0.056248847
206	0x3dc90e20	0.09817147
207	0xbdea9968	-0.11455041
208	0x3d206a16	0.03916367
209	0xbce60f1a	-0.028083373
210	0xbd82ff4b	-0.063963495
211	0x3d9340ec	0.07190117
212	0xbe6d65ae	-0.23183319
213	0xbdc24af6	-0.09486954
214	0x3d3aaf49	0.04557732
215	0xbc76b874	-0.0150586255
216	0x3e149b97	0.14512478
217	0xbe3f5389	-0.1868421
218	0xbcb2efd2	-0.02184287
219	0x3c5f8f3e	0.013644991
220	0xbee0b17e	-0.43885416
221	0xbd889459	-0.0666892
222	0xbe2ed4b8	-0.17073333
223	0xbdc74416	-0.09729783
224	0xbcaedcd4	-0.021345533
225	0x3db2e701	0.08735467
226	0xbeb38341	-0.35061076
227	0x3d9e46a8	0.0772832
228	0x3dc17c33	0.09447517
229	0xbe6a14dd	-0.22859521
230	0x3dda8076	0.10669033
231	0xbcfa4c38	-0.030553922
232	0x3d8f71be	0.070041165
233	0xbd8b63f1	-0.06806172
234	0xba72da41	-0.000926409
235	0xbde4a7c4	-0.11164811
236	0xbcadbffa	-0.021209706
237	0xbe0704b1	-0.13185383
238	0x3d2c79c5	0.042108316
239	0x3d231764	0.03981723
240	0xbae24c3b	-0.001726515
241	0xbd3f655f	-0.046727534
242	0xbdae1231	-0.084995635
243	0x3d9ecd72	0.07754029
244	0xbc1757ab	-0.00923721
245	0x3e1ab81a	0.15109292
246	0x3e0c47ec	0.13699311
247	0xbe6000bc	-0.2187528
248	0xbdd856a9	-0.10563404
249	0x3d5fe8b4	0.054665282
250	0xbd9a933e	-0.075476155
251	0x3e1d5c90	0.15367341
252	0x3d0043a7	0.03131452
253	0x3dadd6a1	0.08488203
254	0x3cda3fce	0.026641753
255	0xbe232d5a	-0.15935269

layer1.0.bn2.weight f4 [16]
0	0x3f842019	1.0322295
1	0x3fa33981	1.2751924
2	0x3f8495f9	1.0358268
3	0x3fa1843e	1.2618482
4	0x3f670b8f	0.9025201
5	0x3f896656	1.0734355
6	0x3f769cbf	0.96332926
7	0x3f563e7b	0.8368909
8	0x3f80943b	1.0045236
9	0x3f66511a	0.899675
10	0x3f66e2b4	0.9018967
11	0x3f5f9a3c	0.8734472
12	0x3f91cb14	1.13901
13	0x3f82ce57	1.021922
14	0x3f81fea7	1.0155839
15	0x3f620806	0.8829349

layer1.0.bn2.bias f4 [16]
0	0xbbdb88ec	-0.006699672
1	0x3e991d84	0.2990533
2	0x3e2c6a1e	0.16837355
3	0x3e5fb4a1	0.21846248
4	0xbe0de0e5	-0.13855322
5	0x3e1d2aea	0.15348402
6	0x3e3d87a3	0.18508773
7	0xbd97da2e	-0.07414661
8	0xba71fc4d	-0.0009231016
9	0x3e9d4ca3	0.30722532
10	0x3d8fd8fd	0.07023809
11	0xbe12850a	-0.14308563
12	0x3e027574	0.12740117
13	0x3d8de128	0.06927711
14	0x3cd50159	0.02600162
15	0xbd4ead7a	-0.05045841

layer1.0.bn2.running_mean f4 [16]
0	0xbf6c8587	-0.92391247
1	0xbf992265	-1.1963621
2	0xbc5d4001	-0.013504029
3	0xbf960008	-1.171876
4	0x3f1e2181	0.6176987
5	0xbfa3e309	-1.2803661
6	0xbf3af9c8	-0.73037386
7	0xbdcbae4c	-0.09945354
8	0xbf3c88ab	-0.7364604
9	0xbf67ccea	-0.9054705
10	0x3fa153d3	1.2603706
11	0xbf9543ed	-1.1661354
12	0xbe008b6e	-0.12553188
13	0xbd23f849	-0.040031705
14	0xbf74712d	-0.9548519
15	0xbf53b507	-0.826981

layer1.0.bn2.running_var f4 [16]
0	0x3f532aac	0.8248699
1	0x3fea97cf	1.8327578
2	0x3faf3486	1.3687904
3	0x3f911f61	1.1337701
4	0x3f8a1722	1.078831
5	0x3f976d95	1.1830317
6	0x3fb90055	1.4453226
7	0x3f40753f	0.75178903
8	0x3f55f697	0.8357939
9	0x3f905b27	1.1277817
10	0x3f8826c3	1.0636829
11	0x3f695ae6	0.91154325
12	0x3fd89520	1.6920509
13	0x3f6625c7	0.89901394
14	0x3f9fd9ea	1.2488377
15	0x3f41f4bd	0.75764066

layer1.1.conv1.weight f4 [16, 16, 3, 3]
0	0xbe24814a	-0.16064945
1	0xbd36a0a6	-0.0445868
2	0x3c48dba4	0.012259398
3	0x3e04988f	0.12948821
4	0xbe5925b1	-0.21205784
5	0x3e41b3f7	0.18916307
6	0x3c4e5176	0.012592664
7	0x3e7d607b	0.24743836
8	0xbd8701c1	-0.065921314
9	0x3da05f59	0.07830686
10	0xbe450acf	-0.19242404
11	0xbe056f31	-0.13030697
12	0xbc9985e4	-0.018740602
13	0x3bd14149	0.0063859564
14	0x3e1e4a23	0.15457968
15	0xbe00e7c6	-0.12588415
16	0x3d99426a	0.074833706
17	0xbe473970	-0.19455504
18	0x3e12943a	0.14314356
19	0xbe7f48d5	-0.24930127
20	0x3de301a7	0.110842995
21	0xbbabeb56	-0.00524656
22	0xbcee84d4	-0.029116072
23	0x3e239976	0.1597651
24	0xbe1ef784	-0.15524107
25	0x3e0ab227	0.13544522
26	0xbcc9c52b	-0.02463015
27	0xbe15b758	-0.14620721
28	0x3e6ed167	0.23322068
29	0xbe337cad	-0.17528029
30	0x3e52957d	0.20564838
31	0xbe19d01c	-0.15020794
32	0x3c9af0b7	0.01891361
33	0x3d7d7567	0.06187954
34	0x3c647b11	0.013945357
35	0xbc8f33a0	-0.017480671
36	0xbd00171a	-0.03127203
37	0x3d0ae68f	0.033911284
38	0xbd92d89d	-0.07170222
39	0xbccd3793	-0.025050914
40	0x3ce10916	0.027470153
41	0xbd24021f	-0.040041085
42	0xbd781852	-0.06057007
43	0xbdceb6ff	-0.100934975
44	0x3ca27776	0.019832354
45	0x3dd22a77	0.10262006
46	0xbe685700	-0.22689438
47	0x3e2cac8e	0.168627
48	0xbdec3cf0	-0.115350604
49	0x3d9963f6	0.07489769
50	0xbc93d223	-0.018044537
51	0xbd6955b8	-0.056966513
52	0x3e166669	0.14687504
53	0xbd812657	-0.06306141
54	0xbe024b6e	-0.12724087
55	0x3d0fe0d8	0.035126537
56	0xbe544430	-0.20729136
57	0x3d8aad98	0.06771392
58	0xbccba91b	-0.02486091
59	0xbdfad0b0	-0.12246835
60	0x3e0ef8b2	0.13962057
61	0xbe0b2c5b	-0.13591139
62	0x3de610e0	0.112336874
63	0x3d302322	0.043002255
64	0x3cf3fed5	0.0297846
65	0x3e0a2401	0.13490297
66	0xbdd0d757	-0.10197323
67	0x3d38c7d8	0.04511246
68	0x3be56a65	0.0070012086
69	0x3d2d2aaf	0.042277034
70	0x3dc7769e	0.09739421
71	0xbd349038	-0.04408285
72	0x3dc8c273	0.09802713
73	0xbe26fe53	-0.16307954
74	0x3e402367	0.18763505
75	0xbd21b844	-0.03948237
76	0x3e2bca53	0.167764
77	0xbd2f269e	-0.042761438
78	0xb97451eb	-0.0002330017
79	0x3d93ce7d	0.07217119
80	0xbdc56e11	-0.09640134
81	0x3ba05dcc	0.004893994
82	0x3e2f4ec8	0.17119896
83	0xbcbb3efa	-0.022857178
84	0x3e00e167	0.12585984
85	0xbdc951f1	-0.09830082
86	0xbd9ecc41	-0.07753802
87	0x3d77bf5f	0.06048524
88	0x3d86d9f8	0.06584543
89	0xbd66668c	-0.05625014
90	0xbe22ba8d	-0.15891476
91	0x3de1d2e7	0.110265546
92	0xbcbaf8ff	-0.022823809
93	0xbd55e3c8	-0.052219182
94	0xbcd08060	-0.025451839
95	0x3d84b7bf	0.06480359
96	0xbdacb65c	-0.0843322
97	0xbd7dc786	-0.06195786
98	0x3d97380e	0.073837385
99	0x3d60cc8d	0.054882575
100	0x3d49ee14	0.049299315
101	0xbc4a20f9	-0.012336963
102	0xbc70f22a	-0.014706174
103	0x3b950fa2	0.0045489827
104	0xbe1ad997	-0.15122066
105	0xbd40dc89	-0.04708532
106	0xbd78072a	-0.060553707
107	0x3d983ee3	0.0743387
108	0xbe29f5f4	-0.1659773
109	0x3d7540c5	0.059876222
110	0xbdac4a86	-0.08412652
111	0xbd17ef05	-0.03709318
112	0xbe1f517f	-0.15558432
113	0x3d70898d	0.05872493
114	0xbdba2e4c	-0.09090862
115	0xbd853d91	-0.065058835
116	0x3d00993c	0.031396136
117	0x3bddc23f	0.0067675407
118	0xbe382caa	-0.17985788
119	0x3e779608	0.24178326
120	0x3d6b41db	0.05743585
121	0xbda604b9	-0.081063695
122	0xbcdcc84d	-0.02695098
123	0xbdefe49b	-0.11713525
124	0x3e1ce081	0.15320016
125	0xbe207d51	-0.15672804
126	0xbd879b07	-0.06621366
127	0x3c277f95	0.010223289
128	0xbde6177c	-0.11234948
129	0x3dad4ee4	0.08462313
130	0xbdfe1080	-0.12405491
131	0x3e01736f	0.1264169
132	0x397cde51	0.00024115412
133	0xbb3af0d1	-0.0028524885
134	0x3da304d4	0.07959905
135	0xbd9b2fb5	-0.07577459
136	0x3c787994	0.015165705
137	0xbb3f7c5c	-0.002921841
138	0x3e27ae31	0.16375042
139	0xbe119290	-0.14216065
140	0x3e121c87	0.14268695
141	0xbd891fe3	-0.06695535
142	0x3c9f83db	0.019472053
143	0x3da019d3	0.078174256
144	0xbdc595d7	-0.0964772
145	0xbe0614ba	-0.13093844
146	0xbc1bdf77	-0.009513727
147	0xbda45c32	-0.08025397
148	0xbe11ebc2	-0.1425009
149	0x3d82ed5e	0.063929304
150	0x3e05e94f	0.13077281
151	0x3e00ccc1	0.12578107
152	0x3e8b2871	0.27179292
153	0xbc914c64	-0.017736621
154	0xbe113239	-0.14179315
155	0x3d343869	0.04399911
156	0xbe155a13	-0.14585142
157	0xbe1d491c	-0.1535992
158	0x3cbe09f0	0.023198098
159	0x3d086e1e	0.03330814
160	0xbd13542e	-0.035968952
161	0xbd3d61f8	-0.04623601
162	0xbd0e9be7	-0.03481665
163	0x3d65376c	0.055961058
164	0x3d856f59	0.065153785
165	0xbe9be991	-0.30451635
166	0xbdf50622	-0.1196406
167	0xbe9e618f	-0.30933806
168	0xbdfae5a2	-0.1225083
169	0xbe3c7ad8	-0.18406236
170	0xbea3a185	-0.31959167
171	0xbcb1e638	-0.021716222
172	0x3e857a7d	0.26070014
173	0xbca7d216	-0.020485919
174	0x3c6055e1	0.01369235
175	0x3d5afb5a	0.053462364
176	0xbd830047	-0.06396537
177	0xbb324c40	-0.0027206093
178	0xbd92308f	-0.07138168
179	0xbca68721	-0.020328106
180	0x3e406237	0.18787466
181	0x3dc4259f	0.09577488
182	0xbb5eb541	-0.0033982547
183	0x3e8b038a	0.27151138
184	0x3e1b1d68	0.15147936
185	0xbdc6da5d	-0.09709618
186	0xbdfe3534	-0.124124914
187	0xbe560c6d	-0.20903178
188	0xbca00ee6	-0.019538354
189	0x3e173b99	0.14768828
190	0x3d867bc2	0.06566574
191	0x3db15d1b	0.086603366
192	0x3e7c1557	0.24617516
193	0x3d16df0a	0.0368338
194	0xbb8299ab	-0.003985604
195	0x3cde37ca	0.027126212
196	0x3ddb1fb4	0.10699406
197	0x3d599d72	0.053128667
198	0x3d237de0	0.039914966
199	0x3dedbb7b	0.11608025
200	0x3e01918c	0.12653178
201	0x3df67f52	0.12036003
202	0x3e01e711	0.12685801
203	0x3d2c7fc3	0.04211403
204	0x3d59c30b	0.053164523
205	0x3d1c5229	0.03816429
206	0x3dbe0be8	0.09279615
207	0xbcef44d0	-0.029207617
208	0xbdda1d5d	-0.10650132
209	0x3e0db9b9	0.13840379
210	0x3abe176f	0.0014502833
211	0x3def2938	0.11677784
212	0x3de51f69	0.11187632
213	0x3dc9ba6c	0.0985001
214	0x3e2e98e9	0.17050518
215	0x3c69344e	0.014233662
216	0x3cc31fd5	0.02381889
217	0xbd75ad48	-0.059979707
218	0xbd360328	-0.044436604
219	0x3ddebb75	0.10875598
220	0x3e1b6a52	0.15177277
221	0x3c5d49fa	0.013506407
222	0x3e0eea57	0.13956581
223	0x3d323509	0.04350761
224	0xbdccec50	-0.100060105
225	0x3d1644ba	0.036686637
226	0xbcc0c0c7	-0.023529423
227	0x3cc07150	0.023491532
228	0x3d92ea8d	0.07173643
229	0x3d8a5db6	0.06756155
230	0xbbd0ee43	-0.0063760593
231	0x3cb02ee9	0.021506744
232	0xbd300f29	-0.042983208
233	0x3d2e04b8	0.04248497
234	0xbc9fb555	-0.019495646
235	0xbe20de07	-0.15709697
236	0xbde924e2	-0.11383988
237	0x3d3157a4	0.04329647
238	0xbd332e88	-0.043745548
239	0xbd6c6623	-0.057714593
240	0xbe15bba5	-0.14622362
241	0xbe2a366f	-0.16622327
242	0x3d8f57ff	0.06999206
243	0xbde9cd6c	-0.11416134
244	0xbe5136d9	-0.20431079
245	0xbdb52688	-0.0884524
246	0xbb7bde4b	-0.0038432057
247	0xbd613db0	-0.05499047
248	0xbda06027	-0.078308396
249	0x3daf4998	0.08558959
250	0x3dac43e7	0.08411389
251	0x3ceac321	0.028657498
252	0x3db457c5	0.08805803
253	0x3e46054a	0.19337955
254	0x3d7f073a	0.06226275
255	0x3e20bc41	0.15696813

layer1.1.bn1.weight f4 [16]
0	0x3f819866	1.0124633
1	0x3f706078	0.938972
2	0x3f6fb4e5	0.936354
3	0x3f75e248	0.960484
4	0x3f92497f	1.1428679
5	0x3f89c8ca	1.0764401
6	0x3f79d260	0.9758663
7	0x3f93f00c	1.1557631
8	0x3f5975aa	0.84945166
9	0x3f89fe68	1.0780764
10	0x3f7bf645	0.9842265
11	0x3f6c0790	0.9219904
12	0x3f58d92f	0.84706396
13	0x3f85dbbf	1.0457686
14	0x3f5cc506	0.86238134
15	0x3f882671	1.0636731

layer1.1.bn1.bias f4 [16]
0	0xbe28ca7e	-0.16483495
1	0xbe7ff2e6	-0.24995002
2	0xbe11f86a	-0.14254919
3	0xbe9339a2	-0.28754908
4	0xbde1951a	-0.11014767
5	0x3d3a7b35	0.045527656
6	0xbe2e6c06	-0.17033395
7	0xbddfbb90	-0.109244466
8	0xbe0c6248	-0.13709366
9	0xbe77815c	-0.2417044
10	0xbd93b1d7	-0.07211655
11	0xbe46a272	-0.19397905
12	0xbe97e266	-0.29664916
13	0xbdfc26a8	-0.123120606
14	0xbe338bd7	-0.17533813
15	0xbe33294e	-0.17496225

layer1.1.bn1.running_mean f4 [16]
0	0xbf0ec94b	-0.557759
1	0x3e1316c8	0.14364159
2	0x3f182a00	0.59439087
3	0xbcf0c5ff	-0.029391287
4	0xbf0a00c9	-0.5390745
5	0xbf803979	-1.0017539
6	0xbf9165ba	-1.135917
7	0xbee527b5	-0.44756857
8	0xbfd1460e	-1.6349504
9	0xbfca1740	-1.5788345
10	0xbfdaba14	-1.7088037
11	0xc0163677	-2.3470743
12	0xbf0e8213	-0.5566723
13	0xbe813c15	-0.2524115
14	0xbec1d678	-0.3785894
15	0xbfbdb884	-1.4821935

layer1.1.bn1.running_var f4 [16]
0	0x401b205c	2.42385
1	0x409b89e8	4.8605843
2	0x3fead2f6	1.834563
3	0x401c00d5	2.4375508
4	0x40d65456	6.697795
5	0x40469b7a	3.1032395
6	0x409c4a4e	4.8840704
7	0x409db855	4.9287515
8	0x401cd6a5	2.4506009
9	0x40866395	4.199656
10	0x405093a3	3.259011
11	0x4047133e	3.1105494
12	0x3ff51764	1.9147763
13	0x40b7a8eb	5.73937
14	0x3fce4edc	1.6117816
15	0x404e7be0	3.2263107

layer1.1.conv2.weight f4 [16, 16, 3, 3]
0	0x3d1f5aeb	0.038905066
1	0x3d833dfe	0.064083084
2	0x3df2ec7f	0.11861514
3	0xbe11cbc2	-0.14237884
4	0xbd806e67	-0.062710576
5	0xbd9e9124	-0.07742527
6	0xbd84a885	-0.06477455
7	0xbe439dfc	-0.19103235
8	0xbd571b65	-0.05251636
9	0xbd8692c1	-0.0657096
10	0x3c936e45	0.017996917
11	0xbd7bf8db	-0.061516624
12	0x3c8357c1	0.016033055
13	0x3ca8b2ee	0.020593133
14	0xbc184b09	-0.0092952335
15	0xbdee01d9	-0.11621446
16	0xbd842415	-0.064521946
17	0xbba4d13a	-0.0050298246
18	0xbd03b819	-0.03215799
19	0xbcea0e13	-0.028571164
20	0x3d7c3da8	0.061582237
21	0xbd97cd4b	-0.074122034
22	0xbe329dfd	-0.1744308
23	0xbd31e835	-0.04343434
24	0xbdbbfa8e	-0.09178649
25	0xbde61c02	-0.11235811
26	0xbd384e8c	-0.044996783
27	0xbc79b31f	-0.01524046
28	0x3e02dda4	0.12779862
29	0x3c89f89e	0.016842183
30	0x3cf74b19	0.030187177
31	0x3db1f06e	0.086884364
32	0xbcaf03ce	-0.021364119
33	0x3db37105	0.08761791
34	0x3ddee5f4	0.10883704
35	0xbc0a8151	-0.008453683
36	0xbde08e1d	-0.10964606
37	0xbe86bfb1	-0.26318124
38	0xbe3aa509	-0.18227018
39	0xbe23ebba	-0.16007891
40	0xbe7bdf76	-0.24596962
41	0xbe764530	-0.2404983
42	0xbe0ce2af	-0.13758348
43	0xbea4f574	-0.32218516
44	0xbe906fa4	-0.28210175
45	0x3da12306	0.07868008
46	0x3d98be70	0.07458198
47	0x3e0d01eb	0.13770263
48	0xbdd7ce07	-0.105373435
49	0x3d459e2f	0.04824656
50	0x3e1931f8	0.14960468
51	0xbbfa705a	-0.007642788
52	0x3c61f7c4	0.013791982
53	0x3d15830f	0.03650194
54	0xbde192b6	-0.11014311
55	0xbe108d96	-0.14116511
56	0xbcd0a23c	-0.025467984
57	0xbe25f7ec	-0.16207856
58	0xbc46a6b7	-0.012124709
59	0xbd89527d	-0.067051865
60	0xbd69a72b	-0.05704419
61	0xbd02bf83	-0.03192092
62	0x3cdcfe11	0.026976617
63	0xbe9d7109	-0.307503
64	0xbd778f03	-0.06043912
65	0x3c0da809	0.00864602
66	0xbe9e29af	-0.30891177
67	0xbe47c22c	-0.19507664
68	0x3b93c427	0.004509467
69	0xbe445828	-0.19174254
70	0xbe1cd913	-0.15317182
71	0xbe350cba	-0.17680636
72	0xbd2fa24b	-0.042879384
73	0x3b09b7e6	0.0021014153
74	0xbda8bded	-0.082393505
75	0x3da77ebf	0.08178472
76	0x3d6a3991	0.057183806
77	0x3db020e3	0.08600023
78	0x3e50f314	0.20405227
79	0x3e622e18	0.22087896
80	0x3da7a0d1	0.0818497
81	0x3d247b42	0.04015661
82	0x3dc0813b	0.09399649
83	0xbddcd733	-0.107832335
84	0xbd855213	-0.06509795
85	0x3cf80e34	0.03028021
86	0x3cc321bf	0.023819802
87	0xbdaf700b	-0.085662924
88	0x3ce532c6	0.027978312
89	0x3d985260	0.07437587
90	0x39177baf	0.00014446558
91	0x3c877cd0	0.016539007
92	0x3e3c6ddb	0.18401282
93	0x3d00c823	0.031440865
94	0x3d90c0c0	0.07068014
95	0x3e0d5591	0.13802172
96	0x3d611d1c	0.0549594
97	0x3d3f258f	0.046666678
98	0x3d1de4d2	0.0385483
99	0x3dd5b643	0.10435154
100	0x3e586698	0.21132886
101	0x3d969a89	0.07353694
102	0xbcef19ff	-0.0291872
103	0x3e685823	0.22689871
104	0x3e5134e4	0.20430332
105	0xbd97e3ff	-0.07416534
106	0xbd06a9e0	-0.03287685
107	0xbd0b282d	-0.03397386
108	0x3d74cb66	0.05976429
109	0x3d128e7d	0.03578042
110	0xbd414b06	-0.04719069
111	0x3df3ed31	0.11910475
112	0xbc226c20	-0.009913474
113	0xbd080c22	-0.033214696
114	0x3def146a	0.116738155
115	0x3ca7da02	0.020489696
116	0x3d171be4	0.036891833
117	0xbd8bf3dd	-0.068336226
118	0xbe3e7eb1	-0.18603016
119	0xbe0dbf34	-0.1384247
120	0xbd2ca2f5	-0.042147595
121	0xbe391583	-0.18074612
122	0xbdec6a9c	-0.115437716
123	0xbd2d477f	-0.042304512
124	0xbdd6c5e1	-0.10486961
125	0xbe0127b4	-0.12612802
126	0x3d2cb9c0	0.042169333
127	0x3d69683a	0.056984164
128	0x3d335855	0.043785412
129	0x3e22c47d	0.15895267
130	0x3da9bce4	0.08287981
131	0xbd63fdd0	-0.055661976
132	0x3d5e780e	0.05431371
133	0xbd273d8c	-0.04083018
134	0x3a9b3cde	0.0011843701
135	0xbda8cc72	-0.0824212
136	0x3e0ec3cb	0.13941877
137	0x3ce5e05e	0.028061088
138	0x3d5a8cf9	0.0533571
139	0x3d15ecde	0.036602847
140	0xbd300a35	-0.042978484
141	0x3d2a43f9	0.04156873
142	0x3d1f07d7	0.038825836
143	0x3cd38649	0.025820868
144	0x3d41cd3c	0.047314867
145	0x3d80b7ee	0.06285082
146	0x3c8f3029	0.01747902
147	0x3c4ba453	0.012429315
148	0x3e7cd5a0	0.24690866
149	0x3cc6d119	0.024269627
150	0x3e0b544d	0.13606377
151	0x3deba56b	0.1150616
152	0x3d32f772	0.043693013
153	0x3db54aa9	0.08852131
154	0x3d8a6175	0.0675687
155	0x3e3854e2	0.1800113
156	0x3dc48e6a	0.09597476
157	0x3d8f1ae9	0.069875546
158	0x3d63b1a2	0.055589326
159	0xbb9b8b15	-0.0047468045
160	0xbd001dfa	-0.031278588
161	0xbe1f6177	-0.15564524
162	0x3d33b81f	0.043876763
163	0x3e303940	0.17209339
164	0x3d20c450	0.03924972
165	0xbd7dfdf2	-0.06200976
166	0xbd6620d4	-0.05618365
167	0x3d2ff968	0.04296246
168	0xbe5fb541	-0.21846487
169	0xbdf34b09	-0.11879546
170	0x3c8086cf	0.015689282
171	0x3db67021	0.08908106
172	0x3d81e482	0.063424125
173	0x3d776eef	0.06040853
174	0x3d53c210	0.051698744
175	0x3e4085bc	0.18801016
176	0x3cec63d3	0.028856194
177	0x3da484e6	0.08033161
178	0x3de7c5e2	0.1131704
179	0xbdcc146c	-0.09964833
180	0x3dd9c18c	0.10632619
181	0xbdbc2e4d	-0.09188519
182	0x3d2ca94a	0.042153634
183	0x3d799bf1	0.060939733
184	0x3d0c97fc	0.03432463
185	0x3e2caf6f	0.16863798
186	0x3e6fd98f	0.23422836
187	0xbbed5884	-0.007243218
188	0xbcad450c	-0.021151088
189	0xbc2beaa5	-0.010492955
190	0x3e092b14	0.13395339
191	0x3e09dd2a	0.13463274
192	0x3d27cb05	0.0409651
193	0x3d8e3169	0.06943018
194	0x3e03b37c	0.12861437
195	0xbd4d812e	-0.050172023
196	0x3da4764d	0.080303766
197	0xbbd71165	-0.006563353
198	0x3e2cf6e4	0.16891056
199	0x3e002607	0.12514506
200	0x3db35753	0.0875689
201	0x3e34590c	0.17612094
202	0x3d1ad484	0.037800327
203	0xbd5ecb52	-0.05439312
204	0x3d698b31	0.05701751
205	0x3dc56128	0.09637672
206	0x3e03687a	0.12832823
207	0xbd5b2730	-0.05350417
208	0x3e59a3d7	0.21253906
209	0x3d98d21e	0.07461952
210	0x3d2c2b99	0.042033765
211	0x3dcd5e65	0.1002777
212	0x3d84f552	0.06492104
213	0x3d427e24	0.04748358
214	0x3e7b8e5d	0.24566026
215	0x3d6af732	0.05736465
216	0x3db5ef9e	0.08883594
217	0x3d17c304	0.037051216
218	0xbd91a03c	-0.071106404
219	0x3d000521	0.03125489
220	0x3d84ac30	0.06478155
221	0x3e361c9a	0.17784348
222	0x3ca5b50b	0.02022793
223	0x3ca0ad4e	0.019613888
224	0x3d5fc8ee	0.05463498
225	0x3d3bbda8	0.045835167
226	0x3e0ab9fc	0.1354751
227	0x3dad3fe8	0.08459455
228	0x3e878a42	0.2647267
229	0x3e6d04aa	0.2314631
230	0xbe25e400	-0.16200256
231	0x3e7f3777	0.24923502
232	0xbd29cc04	-0.04145433
233	0xbe7a05a2	-0.24416211
234	0xbdad7b10	-0.08470738
235	0xbab6723b	-0.0013919541
236	0xbd46866c	-0.04846804
237	0xbdab084d	-0.083511926
238	0x3dfb0354	0.12256494
239	0x3cef7112	0.02922872
240	0x3d54cc68	0.05195275
241	0x3e32144e	0.17390558
242	0x3df39411	0.11893476
243	0xbc2d3eb3	-0.010574031
244	0xbb31a95f	-0.002710901
245	0xbe262e24	-0.16228539
246	0xbe16aa90	-0.14713502
247	0xbdc6b494	-0.09702411
248	0xbd0c979b	-0.03432427
249	0xbd484700	-0.048895836
250	0xbd5f5097	-0.054520216
251	0x3cdc4bcc	0.026891612
252	0xbe08a43d	-0.13343902
253	0x3d3c2065	0.04592933
254	0x3dc86a74	0.09785929
255	0xbbc48d7c	-0.0059983116

layer1.1.bn2.weight f4 [16]
0	0x3f82bf38	1.0214605
1	0x3f6c553d	0.92317563
2	0x3f87a6f7	1.0597829
3	0x3f8c0d75	1.0941607
4	0x3f9239e2	1.1423914
5	0x3f8bd6b7	1.0924901
6	0x3f849119	1.035678
7	0x3f830908	1.0237131
8	0x3f7f41a4	0.99709535
9	0x3f62f69e	0.8865756
10	0x3f85d2ef	1.0454997
11	0x3f7f08df	0.9962291
12	0x3f4b8229	0.79495484
13	0x3f57f889	0.8436361
14	0x3f623775	0.8836587
15	0x3f432be9	0.76238877

layer1.1.bn2.bias f4 [16]
0	0x3d9db024	0.07699612
1	0x3e66e490	0.22548127
2	0xbdd63c1d	-0.104606844
3	0xbe430415	-0.19044526
4	0xbbd85cef	-0.0066028754
5	0x3e1c004a	0.15234485
6	0xbd39d63b	-0.04537032
7	0x3ddf1236	0.10892145
8	0x3dd7a432	0.10529365
9	0x3b88d99f	0.004176333
10	0x3d62d17d	0.055375565
11	0xbd42c374	-0.04754968
12	0xbe20aca6	-0.1569086
13	0x3e3aa244	0.18225962
14	0x3cd9a60a	0.026568431
15	0xbe2cc43d	-0.16871734

layer1.1.bn2.running_mean f4 [16]
0	0xbf6273c2	-0.8845788
1	0x3fbb243c	1.4620433
2	0x3f3d9ad1	0.74064356
3	0xbf859457	-1.0435895
4	0x3f18c4ca	0.59675276
5	0xbfb19839	-1.387458
6	0x3ee22963	0.441722
7	0xbd85c246	-0.06531195
8	0xbec3ad37	-0.3821809
9	0x3f255b7a	0.6459271
10	0xbf6c8719	-0.9239364
11	0x3f334654	0.7002919
12	0x3f0d1098	0.55103445
13	0xbe15c95a	-0.14627591
14	0x3f126939	0.5719181
15	0x3e83dcc4	0.25754368

layer1.1.bn2.running_var f4 [16]
0	0x3f9c434e	1.220804
1	0x3f85547c	1.0416408
2	0x3f389aeb	0.72111386
3	0x3f3bcc9c	0.73359084
4	0x3f4d8fba	0.80297434
5	0x3f6e5b21	0.931078
6	0x3f621cde	0.883253
7	0x3f34b959	0.7059532
8	0x3f850677	1.0392598
9	0x3f5a1290	0.85184574
10	0x3f511181	0.81667334
11	0x3f6e137a	0.9299847
12	0x3f63ee3c	0.8903539
13	0x3f32f7fe	0.69909656
14	0x3f2607e9	0.6485582
15	0x3f2628c9	0.64905983

layer2.0.conv1.weight f4 [32, 16, 3, 3]
0	0x3d087d55	0.03332265
1	0x3b6c56b6	0.0036062426
2	0xbd8ec16f	-0.06970488
3	0xbd6eace4	-0.05827035
4	0xbdd23b17	-0.10265177
5	0xbe3b53a8	-0.18293631
6	0xbd7fd95c	-0.06246315
7	0xbe2ae8e8	-0.16690409
8	0xbdfdd546	-0.12394194
9	0x3dbec2ee	0.09314524
10	0x3d8cd47a	0.06876464
11	0x3d1599cd	0.03652363
12	0x3df42c1c	0.11922476
13	0x3dd0c353	0.10193505
14	0xbcd0323c	-0.025414579
15	0x3d8d9a80	0.06914234
16	0x3d5612ad	0.052263904
17	0xbd57b672	-0.052664228
18	0xbe0be060	-0.13659811
19	0xbdf9930f	-0.12186252
20	0x3dd5fa9f	0.10448193
21	0xbe9f4076	-0.31103867
22	0xbe484388	-0.19557011
23	0x3dd4062a	0.10352738
24	0xbe812262	-0.25221545
25	0xbd0ecb10	-0.034861624
26	0x3e31ad61	0.17351295
27	0x3d36a7f3	0.044593763
28	0xbcb7a96a	-0.02241965
29	0xbb35f695	-0.0027765383
30	0xbd86d61c	-0.06583807
31	0xbe211db8	-0.15733993
32	0xbc28a517	-0.010293267
33	0xbd726fb6	-0.059188567
34	0xbd436ab4	-0.047709182
35	0x3acf5e20	0.0015820898
36	0xbe165b1d	-0.14683194
37	0xbdbcebf2	-0.092246905
38	0x3dbcca04	0.09218219
39	0xbe2e86b6	-0.17043576
40	0xbb064825	-0.0020489779
41	0x3e39e7b7	0.18154798
42	0xbdee5784	-0.11637786
43	0x3e2b2f29	0.16717209
44	0x3dd045fa	0.10169597
45	0xbe47f373	-0.19526462
46	0xbc561cc7	-0.0130683845
47	0x3da5ac15	0.08089463
48	0xbe65b9e8	-0.22434199
49	0x3dd5f9d7	0.10448044
50	0x3db3a33b	0.08771368
51	0x3d9bd8df	0.07609724
52	0x3e14ed5c	0.1454367
53	0x3de7ce68	0.11318666
54	0x3e204ab8	0.15653503
55	0x3e29c3a9	0.16578545
56	0xbd39dcae	-0.045376472
57	0x3e532e0e	0.20623037
58	0x3d903604	0.07041553
59	0xbd841fe2	-0.06451394
60	0x3c8ad3ea	0.016946752
61	0x3c3843ef	0.011246665
62	0xbd88aa34	-0.06673089
63	0x3cbc968b	0.023021003
64	0x3d5f211b	0.05447493
65	0xbde35a15	-0.11101166
66	0x3e2888bf	0.16458414
67	0x3cabba49	0.020962851
68	0xbc6fa3ba	-0.014626438
69	0xbb0c9c1a	-0.0021455348
70	0xbcad3a8a	-0.021146078
71	0xbd335687	-0.04378369
72	0x3d62d5be	0.05537962
73	0xbccad05b	-0.024757555
74	0xbc6e4371	-0.0145424465
75	0xbd394f5d	-0.045241702
76	0xbd761398	-0.06007728
77	0x3e07c895	0.1326011
78	0xbd0a3648	-0.033743173
79	0xbd5cf1f8	-0.053941697
80	0x3e021273	0.1270235
81	0xbe5b2332	-0.21400145
82	0xbdc0cca3	-0.09414031
83	0xbd4608c0	-0.04834819
84	0xbe5a3d1a	-0.21312371
85	0xbc2c3837	-0.01051145
86	0x3d6ff454	0.05858262
87	0xbd91790a	-0.071031645
88	0x3e144f40	0.14483356
89	0xbd2aaa22	-0.041666158
90	0xbe213da9	-0.15746178
91	0x3db465ed	0.08808503
92	0x3e6a8956	0.22903952
93	0xbe0a811a	-0.13525811
94	0x3e03364f	0.12813686
95	0x3e0ff534	0.14058381
96	0xbdb118bf	-0.08647298
97	0x3d70f771	0.05882973
98	0xbcce478c	-0.0251806
99	0xbddada5c	-0.1068618
100	0x3d7b0f7d	0.061294068
101	0x3dad0f28	0.084501565
102	0xbdad4820	-0.084610224
103	0x3d616214	0.055025175
104	0x3ca186e6	0.019717645
105	0xbe16a8a7	-0.14712773
106	0xbde71c56	-0.112847015
107	0x3d113d88	0.03545907
108	0xbc260c8e	-0.010134829
109	0x3daa1d74	0.08306399
110	0xbc857d20	-0.016295016
111	0x3d749953	0.059716534
112	0x3e461b96	0.1934646
113	0x3da9ae41	0.082851894
114	0x3d8e5d37	0.06951373
115	0x3e402bce	0.1876671
116	0x3d15bbaa	0.036555924
117	0xbce72bce	-0.02821913
118	0xbe037760	-0.12838507
119	0x3d0a858a	0.03381876
120	0xbdcac0f7	-0.099000864
121	0xbcff4d64	-0.031164832
122	0xbd81eeeb	-0.06344398
123	0xbe107b58	-0.14109552
124	0x3dbb2b30	0.09139097
125	0x3d75e92c	0.060036823
126	0xbcdb056f	-0.02673599
127	0xbc2a36b0	-0.010389015
128	0xbc1c25ab	-0.009530465
129	0xbc701402	-0.014653208
130	0x3c9a0275	0.0188
131	0x3d8e641f	0.0695269
132	0x3d81338f	0.06308662
133	0xbd810f8a	-0.06301792
134	0xbdb9e24f	-0.09076368
135	0xbccfd1ca	-0.02536859
136	0x3eb092d3	0.34487018
137	0x3e1b3478	0.15156734
138	0x3de829ce	0.113360986
139	0x3e9dc892	0.30817086
140	0x3e4cf33e	0.20014665
141	0x3e1c907f	0.15289496
142	0x3e5d45db	0.21608679
143	0x3ddb3cd7	0.10704964
144	0x3b3e77b7	0.0029063055
145	0x3d77d78b	0.060508292
146	0x3d94e5f1	0.0727042
147	0x3cd11630	0.025523275
148	0x3e6d566d	0.231775
149	0xbc3190be	-0.010837732
150	0xbd9a40f0	-0.07531917
151	0xbc4a41cf	-0.012344792
152	0xbd856da0	-0.0651505
153	0x3d936c15	0.071983494
154	0x3e16486a	0.14676061
155	0x3cccbe81	0.024993183
156	0x3c95a983	0.018269306
157	0x3bfdcc2f	0.007745288
158	0x3dc39a69	0.09550936
159	0x3c9fb128	0.019493654
160	0xbd5d3426	-0.05400481
161	0xbc840a2c	-0.016118132
162	0xbd316688	-0.043310672
163	0xbe89dfb9	-0.269285
164	0xbe467b0f	-0.1938288
165	0xbd4842df	-0.0488919
166	0xbec4afd6	-0.38415402
167	0xbea5a62b	-0.3235334
168	0x3cc9ec91	0.024648936
169	0xbe50cfba	-0.20391741
170	0xbe67a32b	-0.22620837
171	0x3d3a0e1e	0.04542362
172	0xbcbb662a	-0.022875864
173	0xbc9a2186	-0.018814813
174	0x3da8f108	0.08249098
175	0x3e079225	0.13239343
176	0xbd865774	-0.06559649
177	0x3e2510ec	0.16119736
178	0x3e115314	0.14191848
179	0xbd37a118	-0.044831365
180	0x3c483767	0.01222024
181	0xbe47b913	-0.19504194
182	0xbe081c28	-0.13291991
183	0x3cdc5122	0.026894156
184	0xbe86a4ba	-0.2629755
185	0xbe15999f	-0.14609383
186	0xbd9d2412	-0.076728955
187	0xbe2df59e	-0.16988227
188	0xbd9dd2ac	-0.07706198
189	0x3e3dc1be	0.18530938
190	0xbc1e3351	-0.0096557895
191	0xbce776fb	-0.028254976
192	0x3d3aa1fc	0.045564637
193	0x3cc8ad54	0.024496712
194	0x3c8297a3	0.015941447
195	0xbda1dcf0	-0.079034686
196	0xbdcc73d7	-0.09983032
197	0xbd9a3454	-0.07529512
198	0xbcf3f89c	-0.029781632
199	0x3d8b00dc	0.06787273
200	0xbc5ad674	-0.013356794
201	0xbca224ab	-0.019792875
202	0xbdc6b273	-0.09702005
203	0xbd55bbad	-0.052180935
204	0xbe165ea1	-0.14684536
205	0xbe00084f	-0.1250317
206	0xbdaa03e3	-0.083015226
207	0xbb909a1d	-0.004412903
208	0x3c924ce4	0.01785893
209	0x3bb44c5c	0.005502267
210	0x3d8c8f69	0.06863291
211	0x3cbb7975	0.022885064
212	0x3d6e2070	0.058136404
213	0x3cee4840	0.029087186
214	0x3d299221	0.041399125
215	0x3cb62e4f	0.022238879
216	0xbdb5243d	-0.088448025
217	0xbd6d10ba	-0.05787728
218	0xbd046652	-0.032324143
219	0xbe69a7a2	-0.22817853
220	0xbe12082d	-0.14260931
221	0x3d1704bc	0.03686975
222	0xbe7feea2	-0.24993375
223	0xbdac81dc	-0.08423206
224	0x3d09377b	0.033500176
225	0x3e1ea103	0.15491109
226	0x3e110644	0.14162546
227	0x3e52ccaf	0.20585893
228	0x3e3d7f86	0.18505678
229	0x3e31d417	0.17366062
230	0x3e1c79b2	0.15280798
231	0x3e11e817	0.14248691
232	0xbd8eaf67	-0.06967049
233	0x3d3c9a80	0.04604578
234	0xbd9f6b2a	-0.07784112
235	0xbda1466d	-0.07874761
236	0xbe1f2212	-0.1554034
237	0x3e0cac83	0.13737683
238	0x3cd07fc4	0.025451548
239	0xbe0f715e	-0.1400809
240	0x3e177bbf	0.14793299
241	0x3e2906f6	0.16506562
242	0x3d7a63b3	0.061130237
243	0x3d8b7c39	0.06810803
244	0xbbffd6c0	-0.0078075826
245	0x3cc94a83	0.024571663
246	0xbde4cbe5	-0.11171702
247	0xbe0fd01b	-0.1404423
248	0xbd625dbc	-0.055265173
249	0xbd309866	-0.04311409
250	0xbd6ef5c9	-0.058339868
251	0x3d058dfa	0.032606103
252	0xbd91d769	-0.07121164
253	0xbda92ea3	-0.082608484
254	0xbe0e7fe9	-0.13915981
255	0xbe29c870	-0.16580367

layer2.0.bn1.weight f4 [32]
0	0x3f89431e	1.0723608
1	0x3f8d45d7	1.1036938
2	0x3f7546d1	0.9581118
3	0x3f7fa320	0.99858284
4	0x3f776214	0.9663403
5	0x3f779eb3	0.9672653
6	0x3f579ae5	0.84220725
7	0x3f7ee317	0.9956526
8	0x3f79833a	0.9746586
9	0x3f6eb447	0.9324383
10	0x3f6a6f71	0.91576296
11	0x3f949303	1.1607364
12	0x3f5c6b9a	0.86101687
13	0x3f7710d4	0.9651005
14	0x3f836a64	1.0266843
15	0x3f7943eb	0.9736926
16	0x3f54a613	0.8306591
17	0x3f793ad2	0.9735538
18	0x3f755b2d	0.9584225
19	0x3f7225fc	0.9458921
20	0x3f788291	0.9707423
21	0x3f7d0412	0.98834336
22	0x3f760ce1	0.961134
23	0x3f7e30ae	0.9929303
24	0x3f8f6cef	1.1205119
25	0x3f91b4f8	1.1383352
26	0x3f90abd4	1.1302438
27	0x3f88218c	1.0635238
28	0x3f82ab92	1.0208609
29	0x3f862951	1.0481359
30	0x3f843c06	1.0330818
31	0x3f71fbb0	0.9452467

layer2.0.bn1.bias f4 [32]
0	0xbdd6eba8	-0.104941666
1	0x3c90a507	0.017656816
2	0xbdf11eb3	-0.117734335
3	0xbc6d2c1e	-0.01447585
4	0xbe4d5114	-0.2005046
5	0xbd5a8748	-0.05335167
6	0xbe900c66	-0.2813446
7	0xbe972a5c	-0.29524505
8	0xbe2599c8	-0.16171944
9	0xbe17f83c	-0.14840788
10	0xbe27d031	-0.16388012
11	0xbd93bc3e	-0.07213639
12	0xbd146942	-0.036233194
13	0xbe9a3c4d	-0.3012413
14	0xbe33fc04	-0.17576605
15	0xbdfadc28	-0.12249023
16	0xbe5eaea8	-0.21746314
17	0xbd70bf99	-0.05877647
18	0xbe4a3745	-0.19747646
19	0xbe54f9cf	-0.2079842
20	0xbe014fc7	-0.12628089
21	0xbe713c11	-0.2355807
22	0xbd743596	-0.059621416
23	0xbe0ced30	-0.13762355
24	0xb94d94ca	-0.00019605752
25	0xbe91a3fb	-0.2844542
26	0x3dc17f1b	0.094480716
27	0x3ddefbb5	0.10887853
28	0xbe073551	-0.13203932
29	0xbe310fb1	-0.17291142
30	0xbd2a3e0d	-0.041563082
31	0xbe494163	-0.1965385
